data.pth (torch, 6719 bytes, 6 tensors)

l1.weight f4 [8, 84]
000000 1d 5e 6e 3e 77 46 23 be f6 dd 7d 3f 80 cf f0 3e
       0.23278089 -0.15944849 0.9916681 0.4703331
000010 79 0b 5b be 3c d8 0b 3f 07 01 8c 3e fd c5 ae 3e
       -0.21391095 0.5462682 0.27344534 0.34135428
000020 cc a9 3f 3e d9 ef 71 3d bc 36 91 3f e1 1f 39 bf
       0.18717116 0.059066627 1.1344829 -0.7231427
000030 89 3e 00 3d 36 86 ef 3d 5a 70 b2 3e 34 d0 82 be
       0.03130964 0.116955206 0.34851342 -0.2554947
000040 ae 3c 55 bf 5d a5 c3 3e 66 66 ee bd d2 db 70 3e
       -0.83295715 0.382121 -0.11640625 0.23521355
000050 8f 5e 21 3f c3 ec 4b 3f b6 70 6b 3e 90 45 72 3f
       0.6303491 0.79658145 0.22992215 0.94637394
000060 89 26 1e bf 5e 2f 4f bf 82 d4 a0 3e c0 40 5e be
       -0.6177755 -0.8093165 0.3141213 -0.21704388
000070 83 02 3c 3f 1f cf 36 3f 57 b4 35 bf 4b c1 de 3d
       0.7344133 0.7140979 -0.709783 0.108767115
000080 34 af 9e 3e b0 a0 4a 3f 31 aa fc be 71 12 51 3f
       0.30993044 0.7915144 -0.49348596 0.81668764
000090 24 a2 55 3f 4f 01 b5 3e e3 ba 85 3f 9a 69 31 3f
       0.8345053 0.3535256 1.0447658 0.6930176
0000a0 75 63 b0 3e 16 0f 0d 3f a4 95 20 3f ff a9 04 bb
       0.3445088 0.55101144 0.62728333 -0.0020242927
0000b0 76 08 a8 be 02 9d f7 bc da 05 a6 be 08 db 6c 3f
       -0.32818955 -0.030226234 -0.3242634 0.92521715
0000c0 b3 7e 76 bd 16 63 ca 3e c9 c6 29 be 23 45 46 3f
       -0.060179424 0.39528722 -0.16579737 0.77449244
0000d0 fd 54 dd bc f3 78 b4 be 9d 2b e8 bd e6 5b f1 3e
       -0.027018065 -0.35248527 -0.113364436 0.47140425
0000e0 c5 37 91 3f 13 6c 25 bf f5 46 42 3e 87 3f 0e 3e
       1.1345145 -0.64618033 0.1897238 0.13891421
0000f0 49 49 b4 bb 3b 17 98 be 60 c9 ac 3d aa e1 cd be
       -0.0055019003 -0.29705223 0.08436847 -0.4021123
000100 3d 5f e4 3e 6f d4 04 3f 92 4c 36 be 81 02 2b 3f
       0.4460391 0.5188665 -0.17802647 0.66800696
000110 7a b0 29 be ea 1c 89 3f 12 f1 39 bf 68 98 e9 be
       -0.16571227 1.0711949 -0.7263347 -0.4562409
000120 20 ec fa be 4b a9 40 3e 30 d7 75 be 04 d5 4d bd
       -0.49008274 0.1881458 -0.24007869 -0.050251976
000130 8d 24 28 3f 35 8f f2 3d 2b 80 73 3e 45 b3 1c 3f
       0.6568077 0.11843721 0.23779361 0.61211044
000140 f2 80 54 be 3d e8 1c 3f 72 30 c3 3e aa 03 88 38
       -0.20752314 0.6129187 0.38122898 6.485668e-05
000150 9d cd 7a 3f 97 93 f6 3d 09 63 2f 3f 8e 8d ee 3e
       0.9796999 0.12039869 0.6851049 0.46592373
000160 cc 6c 1a 3f dc 55 73 3e 8a ad b9 3e ce f3 82 be
       0.6032226 0.23763222 0.36265212 -0.25576633
000170 03 aa 1d 3f 49 53 2e 3e 44 2d 48 3f 32 f9 cd be
       0.6158754 0.17023958 0.7819407 -0.40229183
000180 ca ae ca 3e c3 e3 c4 3e 9a 51 9f 3e 3b 67 41 3f
       0.39586478 0.38455018 0.31116945 0.7554814
000190 b4 84 dd 3d e3 16 1a 3f 43 fd 0d 3f 89 ad ea 3e
       0.10816327 0.6019117 0.5546457 0.45835522
0001a0 0b 98 cf 3e 3e 61 b1 be e9 82 91 bc 9e 96 cb be
       0.40545687 -0.34644502 -0.017762618 -0.3976335
0001b0 98 1b 60 3f 72 16 35 3f ca 9f 58 3f 90 f2 cf be
       0.87542105 0.70737374 0.8461882 -0.40614748
0001c0 4b e2 a8 be b4 28 dd 3e 76 b4 aa be 93 b5 88 be
       -0.32985148 0.43195117 -0.33340806 -0.2670103
0001d0 d0 c1 09 bc 45 7c 27 3f 94 9c 15 3f f3 7e 3b 3f
       -0.008408025 0.65423995 0.58442044 0.73240584
0001e0 e2 07 1e 3f 1a de 0b 3f f2 d7 b3 3c c5 bb 9d 3e
       0.6173078 0.54635775 0.021953557 0.3080732
0001f0 24 1b be be 52 6b 8c 3e 7a 65 49 3f ae 66 16 bf
       -0.37130082 0.2742563 0.78670466 -0.58750427
000200 ae 50 cc bd 69 32 0a bf 63 aa 9e be ca c2 f1 be
       -0.09976326 -0.5398317 -0.3098937 -0.47218925
000210 0a 0e 49 3f f6 5f 0b 3f e8 04 0f be b2 0d 88 be
       0.78537047 0.544433 -0.13966715 -0.2657295
000220 7b 09 2e 3f 6a da e5 bc cf 99 33 be 0e ae c7 3e
       0.67983216 -0.02805825 -0.17539142 0.3899998
000230 fb f7 d7 bb 42 79 3c 3f 72 dc c6 3e df 58 e3 3e
       -0.006590841 0.73622525 0.3884006 0.4440374
000240 9c 22 31 3f bf f7 bd be f4 65 07 bf 8b 6f 05 be
       0.69193435 -0.37103078 -0.52889943 -0.13030832
000250 ce f6 74 bf d0 82 b1 be 25 9e 6b be 39 25 73 3e
       -0.95689094 -0.34670115 -0.23009546 0.23744668
000260 e0 bf 39 be db ec 36 3f ea 2e a6 3f c7 fc 20 3f
       -0.18139601 0.7145516 1.2983067 0.6288571
000270 30 39 c7 3e 14 89 e5 bd c7 13 23 3c a0 26 b8 3e
       0.38910818 -0.11207786 0.009953446 0.3596697
000280 9e de 15 3e 85 52 0c bf 68 88 a8 3d a5 15 a0 be
       0.14635703 -0.54813415 0.082291424 -0.31266513
000290 eb b5 a7 3d ee b3 dc 3e 30 86 7f 3e c2 d1 08 3f
       0.08188995 0.43106025 0.24953532 0.53445065
0002a0 b3 82 ed bd 43 bf 9b 3d 30 7c 26 bf f8 df c7 be
       -0.115971945 0.0760484 -0.65033245 -0.39038062
0002b0 e8 a7 54 bc e3 64 0d 3f 86 ea f9 3d 4e c1 6f 3e
       -0.012979485 0.55232066 0.12202935 0.23413584
0002c0 a6 00 97 be 1a 35 b5 bd fd 2d 3e bd b1 28 21 bf
       -0.29492682 -0.08848019 -0.046430577 -0.62952715
0002d0 58 3f 80 be 1f 1e da be fd 3d 9e be c9 06 c4 be
       -0.25048327 -0.42601106 -0.30906668 -0.38286427
0002e0 94 5a b4 be 0d ad 8c be 6f ac 13 be be e6 07 bf
       -0.35225356 -0.27475777 -0.14421247 -0.5308646
0002f0 27 88 36 3f 42 69 25 3f ba 82 5a 3e 0a 7b 5b 3f
       0.713015 0.64613736 0.2133893 0.8573462
000300 93 4f 38 bf 54 f3 a3 bd e0 e8 dc be 52 04 b0 3d
       -0.7199642 -0.080053955 -0.4314642 0.08594574
000310 e3 88 04 3f 27 08 3c 3f 8a 26 21 bf 1b 11 fe 3e
       0.5177137 0.7344994 -0.6294943 0.49622425
000320 0d 97 16 3f 53 a8 4a 3f 96 6a 5f be 68 37 66 3f
       0.58824235 0.7916309 -0.21818003 0.89928293
000330 f8 e3 2b 3f b1 b5 f4 be 5d 41 32 3f 7e 3d 86 3e
       0.6714473 -0.4779487 0.69630986 0.2621879
000340 cb 2b 7b 3f 06 dc 75 3e f3 d0 2a be 88 66 3a 3c
       0.981137 0.24009714 -0.1668127 0.011376984
000350 a0 76 0c 3e 75 3f dd 3c 27 ed 84 be 4b 93 23 3f
       0.13717127 0.027007798 -0.25962183 0.63896626
000360 3e d7 dd 3c 1a ff be be 93 78 06 be 6e 82 f6 3e
       0.027080175 -0.37304002 -0.13131933 0.48146385
000370 c3 0b d7 be 98 a5 88 3a 3e 3b 8a 3d 0a 84 80 be
       -0.4200116 0.0010425327 0.06749581 -0.25100738
000380 5d 9f 3c 3f 2c 91 4e bd 18 33 b5 be be cd ba be
       0.7368067 -0.050431415 -0.35390544 -0.36485094
000390 66 77 cb be d2 fa 9a 3e f5 d1 41 3f 19 03 ab be
       -0.3973953 0.30269486 0.75710994 -0.334008
0003a0 e1 5a 75 3f f5 4c 0d 3f e4 0e bc 3d 57 52 3e 3e
       0.95841795 0.5519555 0.09182528 0.18586098
0003b0 d7 f7 66 be 77 66 a4 bd 7c 2e 21 bf a6 25 97 be
       -0.22555481 -0.08027356 -0.62961555 -0.2952091
0003c0 06 0b 84 be 5f ac 90 3e 07 ff aa 3c 16 bc 75 be
       -0.2578966 0.2825651 0.02087356 -0.2399753
0003d0 79 97 1d 3e 33 b8 43 3f 95 2d f9 3e 13 d7 12 3f
       0.15389813 0.7645294 0.4866759 0.5735943
0003e0 2a 47 6e 3e 4f 75 da bc db 1b 9e 3d cf fe 12 bd
       0.23269334 -0.026667265 0.07720157 -0.035887536
0003f0 53 98 01 bf 60 08 6e 3f 64 1c 1b bf 9a 31 ef be
       -0.50623053 0.9298153 -0.60590196 -0.4671753

l1.bias f4 [8]
000000 c0 f4 39 3f d8 00 75 3f 48 24 21 3f 1b d0 45 3f
       0.72639084 0.9570441 0.62945986 0.7727067
000010 e0 00 4f 3f 15 39 56 3f d2 59 b6 3f 57 7f 58 3f
       0.8086071 0.8368085 1.4246161 0.84569305

l2.weight f4 [8, 8]
000000 41 d4 b0 be ed 18 e0 be f3 51 98 3f 83 c7 ac 3f
       -0.34536937 -0.43769017 1.1900009 1.3498386
000010 7b a6 87 3f 48 a8 0a 40 9e af ae 3f 8f c4 9b bf
       1.0597681 2.166521 1.3647344 -1.216936
000020 13 07 e7 3f e9 bd 24 3f cd 5b 51 3f b6 21 60 bf
       1.8049034 0.6435228 0.817807 -0.8755144
000030 13 8b a4 3f 76 9d 06 3f 42 e9 85 be 68 92 b2 3f
       1.2854942 0.52584016 -0.26154524 1.395093
000040 09 8e d1 bf dd 47 91 3f 14 e3 5a bf 63 f0 e3 3f
       -1.6371471 1.1350056 -0.85502744 1.7807735
000050 73 c0 d6 3e 2f df ba bf 01 4d 70 3f 91 1f b8 3f
       0.41943702 -1.459936 0.938675 1.4384633
000060 05 93 aa be c1 5c 69 be 3b e8 7a 3d ed 5c 8b be
       -0.33315292 -0.22789289 0.06125663 -0.27219334
000070 aa d7 78 3e 6d 15 91 3d bc 84 40 3d c8 33 2a bd
       0.2430102 0.07084165 0.047001585 -0.04155329
000080 9b 69 99 bd db c8 93 be dd 62 f5 3c 41 75 d3 3d
       -0.07490846 -0.28864178 0.029954368 0.10325099
000090 49 2c e0 bd 8d e4 5b be a2 26 91 bc f7 6a 80 be
       -0.10945947 -0.21473904 -0.017718617 -0.25081608
0000a0 8d a3 a7 3f b2 9c c2 bf 72 c8 ea 3f 49 f1 8b 3d
       1.3096787 -1.520407 1.8342421 0.06833131
0000b0 aa 03 b8 3f fa 42 0a be fa 78 5e 3f dd 2a f0 be
       1.4376118 -0.13502112 0.86903346 -0.46907702
0000c0 2a 3c d4 3e e9 68 b5 3f ea 91 19 bf 47 98 84 bf
       0.41452152 1.4172641 -0.5998827 -1.0358971
0000d0 bf 3d a7 bf 41 50 b0 3f 35 c4 f2 3f c7 7b 8e 3f
       -1.3065718 1.3774492 1.8966128 1.1131524
0000e0 e4 61 91 3c db 51 b4 bf 6f e5 af 3d 5d af 7b 3e
       0.017746873 -1.408748 0.08588683 0.24578615
0000f0 e4 f7 f3 3e 33 7b fe be dd 71 be 3f 14 da 0e bf
       0.47650063 -0.4970337 1.4878498 -0.5580151

l2.bias f4 [8]
000000 82 e3 5a 3e eb a8 25 3e d0 eb 57 3f 7d 74 59 be
       0.2137585 0.16177718 0.84344196 -0.21235843
000010 18 c8 15 bd 4e 8c 84 3e 3d 3c 8b 3f f5 d1 25 3f
       -0.036567777 0.25888294 1.0877758 0.64773494

l3.weight f4 [15, 8]
000000 af 9f 03 3e 8e 9e 24 bf 9a eb 60 be 00 c3 a4 be
       0.12853883 -0.64304435 -0.21964875 -0.32180023
000010 f4 68 a0 3e 61 d5 dd bf 17 23 bc 3e f7 fc af bf
       0.31330073 -1.7330743 0.3674552 -1.3749074
000020 59 73 c7 bf ea 43 d9 3e b5 21 02 bf 13 78 8b be
       -1.5582076 0.42434627 -0.5083268 -0.27240047
000030 35 32 a1 be 70 c9 0d c0 cb f7 08 3f cc 1f 2d bf
       -0.31483617 -2.2154198 0.535031 -0.67626643
000040 87 e4 0b 3f fa 90 00 c0 4a d8 0b 3f 96 e8 0d be
       0.5464558 -2.0088487 0.54626906 -0.13858256
000050 7d 11 ef bd 4d 23 ce bf b4 03 74 bf 49 9d 80 bf
       -0.116732575 -1.6104523 -0.9531815 -1.0048
000060 0d 4a 91 bf cb 00 96 bf 52 e2 81 3f 1d 08 40 3e
       -1.1350724 -1.1718992 1.0147192 0.18753095
000070 15 ee b8 bd b6 4b a3 bf c2 b7 66 be 2c d5 98 bf
       -0.090297855 -1.275748 -0.22531036 -1.1940055
000080 15 d2 07 c0 2a 96 5c 3f 71 62 01 c0 6f 8b 79 3e
       -2.1221974 0.8616663 -2.0216334 0.24369596
000090 4f 6d 59 3e cf cd 03 bf 98 93 46 3e 56 c6 87 be
       0.21233104 -0.51485914 0.1939224 -0.26518506
0000a0 e9 c8 5b be 2f 65 90 3e 12 f2 ba bf 8c 7c b3 be
       -0.2146336 0.28202197 -1.4605124 -0.3505596
0000b0 4f f0 4d be 1a 51 f5 3e e1 68 ad bf 64 fd b5 ba
       -0.20111202 0.47913438 -1.3547632 -0.001388472
0000c0 09 11 df bd f1 06 0d bf 27 96 71 3e b3 40 a0 be
       -0.10891921 -0.55088717 0.23592435 -0.31299362
0000d0 63 4b b6 be e5 a2 6b 3e 16 01 dd bf ba 73 14 3f
       -0.3560439 0.23011358 -1.7265956 0.57989085
0000e0 44 6f 26 be 83 67 3d c0 34 d0 8f 3e 99 80 6c be
       -0.16253382 -2.9594429 0.28088534 -0.23095931
0000f0 86 ee 90 be ec ee aa be 4b 6f 9c 3e bf fb 47 3f
       -0.2830698 -0.33385408 0.3055366 0.7811851
000100 ff e9 02 3e 39 6b 60 3d b3 61 b2 bf 4a b2 e6 3d
       0.12784575 0.054789755 -1.3936065 0.11264475
000110 77 97 ea 3d ae d0 0f be 38 76 ae 3c 1d 62 47 bf
       0.11454671 -0.14044449 0.021296605 -0.77884084
000120 49 cc a4 bf b0 e1 63 3f 5c ce 39 3e ae 11 48 be
       -1.2874843 0.89016247 0.18145126 -0.19537994
000130 a4 4b cc 3d cb b1 23 3e 60 20 c8 bf 37 8e c1 bf
       0.09975365 0.15985791 -1.563488 -1.5121526
000140 c3 c9 29 3f d8 87 a8 bf 99 dd 8f be 56 62 8f 3e
       0.6632349 -1.3166456 -0.28098753 0.28004712
000150 c5 74 89 bd c4 0b bc bd 3b fe cc be bc 30 06 3e
       -0.06711725 -0.091819316 -0.40037712 0.13104528
000160 8a 28 1f bd 93 ec 7e be 71 e2 fb bf 24 11 3c 3e
       -0.03885702 -0.24894933 -1.967848 0.18365914
000170 62 ad b4 3d a2 0a 18 c0 bc c8 68 3f 86 d5 34 bf
       0.08822133 -2.375649 0.90931296 -0.7063831
000180 a8 56 2a 3f fb e1 80 bf 3e fd f5 bf 3e 9b 94 be
       0.66538477 -1.0068964 -1.9217908 -0.2902469
000190 bd 08 42 3e 4d 9a ca 3e c8 20 00 bf 3e c0 13 3f
       0.18948646 0.39570847 -0.5005002 0.57715213
0001a0 4a 9e 28 c0 bb e7 2d bf e0 a9 d7 3e 81 32 53 3e
       -2.6346612 -0.6793172 0.42121792 0.20624734
0001b0 12 3f 45 3d d0 f7 59 bf 6d 23 51 3f a4 02 63 bf
       0.04815585 -0.85143757 0.8169468 -0.88675904
0001c0 8a f6 28 3f 87 7c 87 be 93 a7 98 bf fe 06 31 3e
       0.6600119 -0.26462194 -1.192614 0.17287824
0001d0 4a 54 79 bd 2a bd 19 3f 6e c2 28 c0 0a 1f a3 3c
       -0.0608714 0.60054266 -2.636867 0.019912262

l3.bias f4 [15]
000000 0b 35 8a 3e 1a 45 14 bf 52 3e 9b 3e 16 fe ba bd
       0.26993594 -0.5791794 0.30320984 -0.09130494
000010 11 2f 5e 3e eb 36 95 be 8a 40 17 bf f0 b2 0d 3e
       0.21697642 -0.29143462 -0.59082854 0.1383779
000020 cd a2 0b 3f a1 b7 bf 3e 4c 94 eb be 80 ae 35 be
       0.5454529 0.37444785 -0.4601158 -0.17742348
000030 d7 cd 44 bb 4b 73 1c 3f 7d 5e 0a bd
       -0.0030029917 0.61113423 -0.033781517
