data.pth (torch, 6719 bytes, 6 tensors)

l1.weight f4 [8, 83]
0	0x3e61b11e	0.22040221
1	0xbe5323fa	-0.20619193
2	0x3f6477cf	0.89245313
3	0xbf10af4b	-0.56517476
4	0xbf6cd26a	-0.92508566
5	0x3ef916c2	0.48650175
6	0x3f06ddfa	0.5268246
7	0xbe650d1b	-0.2236828
8	0xbf3c5d29	-0.7357965
9	0x3e1d6c7d	0.15373416
10	0x3f08b216	0.5339674
11	0xbe775656	-0.24154028
12	0x3dacc1d2	0.08435406
13	0xbee6a64b	-0.45048746
14	0xbf162a35	-0.5865815
15	0xbed06dcd	-0.4070877
16	0xbf95dcda	-1.1708024
17	0xbe01bc9d	-0.12669607
18	0xbe6f6b57	-0.2338079
19	0xbea14c65	-0.31503597
20	0x3f168463	0.58795756
21	0x3f1eb44b	0.61993855
22	0x3eca8658	0.3955562
23	0x3e82e072	0.25561863
24	0x3f849985	1.035935
25	0x3f6b0bcf	0.91814893
26	0xbe1dfcc6	-0.15428457
27	0xbe04ad6b	-0.12956779
28	0x3eefc9c0	0.4683361
29	0x3f08e0e7	0.53468174
30	0xbe604c58	-0.21904123
31	0x3f1b2ab4	0.60612035
32	0x3ec35e5a	0.38157922
33	0x3f458a2e	0.7716397
34	0xbe200bae	-0.15629455
35	0x3f3a2bd0	0.727231
36	0x3f34d10c	0.7063148
37	0xbcc81497	-0.02442388
38	0x3f834d8b	1.0258039
39	0x3e53cab9	0.20682801
40	0x3e3fee6b	0.18743293
41	0xbe8872dd	-0.26650134
42	0xbd646b51	-0.055766407
43	0xbe28e5c4	-0.16493899
44	0x3eafa7a7	0.34307596
45	0xbf061e6d	-0.52390176
46	0xbe567ded	-0.20946474
47	0x3f2c7dc4	0.67379403
48	0x3e6b986e	0.23007366
49	0xbef46aa4	-0.4773761
50	0x3a247095	0.00062728795
51	0x3ef571ee	0.47938484
52	0x3e0322d1	0.1280625
53	0x3ed172f1	0.40908006
54	0x3eae21d8	0.34010196
55	0xbf2678be	-0.6502799
56	0x3e9dff90	0.3085904
57	0x3ecb90a6	0.39758795
58	0xbc8894a2	-0.016672436
59	0xbd587a67	-0.052851107
60	0x3e99d2bd	0.30043593
61	0x3f04cd8b	0.51876134
62	0xbd929aef	-0.071584575
63	0xbe9ea32b	-0.30983862
64	0x3f8baa20	1.0911293
65	0x3f112f0e	0.56712425
66	0xbe1ca74d	-0.15298195
67	0x3db9f5e7	0.09080105
68	0xbbbd3b12	-0.005774864
69	0x3efecc95	0.4976546
70	0xbe9825dc	-0.29716384
71	0xbe31c242	-0.1735926
72	0x3f1c3eba	0.61033213
73	0x3e56c871	0.209749
74	0xbe0a2e30	-0.13494182
75	0x3f0d9f34	0.5532105
76	0xbe868b95	-0.26278368
77	0x3eb19ad4	0.34688437
78	0x3f01b606	0.5066837
79	0xbd9c12bc	-0.07620761
80	0x3f070140	0.5273628
81	0xbe1682ca	-0.1469833
82	0x3f0c073d	0.54698545
83	0x3f0b00a6	0.54297864
84	0x3ee996e0	0.4562292
85	0xbe54665b	-0.2074217
86	0x3f5f8989	0.87319237
87	0x3e96bcfd	0.29441062
88	0xbf3baea8	-0.7331338
89	0x3e8269c0	0.25471306
90	0xbddf61f4	-0.10907355
91	0x3f88cbcf	1.0687197
92	0x3cc8ed41	0.024527194
93	0x3f63095f	0.88686174
94	0x3f625aa1	0.8841954
95	0x3f507567	0.8142914
96	0x3f5e5e54	0.86862683
97	0x3f83f230	1.0308285
98	0xbebde73b	-0.37090477
99	0xbfd87d33	-1.6913208
100	0x3e8b8a2c	0.27253854
101	0x3bba301d	0.005682005
102	0x3f32b9e6	0.6981491
103	0xbef92f6c	-0.48668993
104	0x3f1a39eb	0.60244626
105	0x3f4efed9	0.80857617
106	0x3e930cef	0.28720805
107	0xbd190d1e	-0.037366025
108	0xbefbe8f1	-0.49201158
109	0xbb1026c1	-0.0021995755
110	0x3e72be98	0.23705518
111	0x3ebd5d55	0.3698527
112	0xbee7e754	-0.45293677
113	0x3f66aae0	0.90104485
114	0xbe1f9269	-0.15583195
115	0x3e2e4e25	0.17021997
116	0xbf5b461d	-0.8565386
117	0x3f2c8468	0.67389536
118	0xbf569b1c	-0.8383043
119	0xbf58f41e	-0.84747493
120	0xbda8695a	-0.08223219
121	0xbd719703	-0.058981907
122	0x3f68237a	0.9067913
123	0xbe98efae	-0.2987036
124	0xbf9586c0	-1.1681747
125	0xbd6733c6	-0.05644586
126	0x3dfd8d49	0.12380464
127	0x3ea5f47c	0.3241309
128	0xbe61189c	-0.21982044
129	0x3db97476	0.09055416
130	0x3f47e791	0.7808772
131	0x3ee4b460	0.44668865
132	0x3f732b19	0.94987637
133	0x3f179bee	0.59222305
134	0x3ed5ab81	0.4173241
135	0xbf0ff9e8	-0.562407
136	0x3ee0aa06	0.43879718
137	0x3e6b9872	0.23007372
138	0x3f80fb5f	1.0076712
139	0xbf1beafd	-0.6090544
140	0x3f38cbf8	0.7218623
141	0x3f610de3	0.87911814
142	0x3f368d2f	0.7130918
143	0xbf0b3bd1	-0.5438815
144	0x3da05bdf	0.07830023
145	0xbf0c7f00	-0.54881287
146	0x3e533032	0.20623854
147	0xbf4151b5	-0.755153
148	0x3ef5a9c3	0.4798108
149	0x3e8f471f	0.2798395
150	0x3f83edf4	1.0306993
151	0x3f120a67	0.5704712
152	0x3f4e661b	0.8062455
153	0x3f97dbca	1.1863949
154	0x3f15cdb9	0.5851703
155	0x3dc69eca	0.09698255
156	0x3e922fb7	0.2855203
157	0x3db828bc	0.089921445
158	0xbead701b	-0.33874592
159	0xbe879ae4	-0.2648536
160	0xbd286216	-0.041109167
161	0x3eb2013b	0.34766564
162	0x3e876fe8	0.26452565
163	0xbe1f68c6	-0.15567312
164	0x3f350495	0.70710117
165	0x3f6bc9b2	0.9210464
166	0x3eda25cb	0.4260696
167	0x3f110edd	0.56663305
168	0x3f1cea54	0.61295056
169	0xbebc5ea0	-0.36790943
170	0xbe9f54d8	-0.31119418
171	0x3e45816c	0.19287652
172	0x3ce69dca	0.028151412
173	0xbe1b8e63	-0.15191035
174	0xbcc828a4	-0.024433441
175	0x3cadf218	0.021233603
176	0xbe3c0e71	-0.18364884
177	0xbf42da43	-0.7611429
178	0xbe6661a6	-0.22498187
179	0xbeb77153	-0.35828647
180	0xbec6d8f5	-0.388374
181	0xbeb1fa7f	-0.34761426
182	0xbed2800d	-0.4111332
183	0xbe227245	-0.15863903
184	0xbde72915	-0.11287133
185	0xbea2533b	-0.31704125
186	0xbaad3064	-0.0013213274
187	0x3e846de2	0.25865084
188	0x3de7e62e	0.113232
189	0x3ecda8f4	0.40167964
190	0xbea10238	-0.31447005
191	0xbd5033f6	-0.050830804
192	0xbe34eff3	-0.17669658
193	0x3e9e0b66	0.3086807
194	0x3e1d31a1	0.15350963
195	0x3e52eecc	0.20598906
196	0xbf4acb03	-0.7921602
197	0x3ea4b1e4	0.3216697
198	0xbdcb863c	-0.099377126
199	0x3e76d932	0.24106291
200	0x3eeb8a91	0.46004155
201	0x3e5c8005	0.2153321
202	0x3e8aba6c	0.27095354
203	0xbe46a202	-0.19397739
204	0x3e6901a9	0.2275454
205	0x3e5ef123	0.21771674
206	0x3f04354e	0.51643836
207	0xbe327c66	-0.17430267
208	0x3e675597	0.22591244
209	0x3f1b9047	0.60767025
210	0x3bf29039	0.0074024466
211	0x3eaec0c5	0.34131446
212	0xbf1df4e0	-0.61701775
213	0x3e13eb8c	0.14445323
214	0x3ce8e423	0.028429097
215	0xbee974be	-0.4559688
216	0x3efbe5f7	0.49198887
217	0x3e1e9312	0.1548579
218	0xbed95ffc	-0.42456043
219	0x3dd0e1e4	0.10199335
220	0x3c073da5	0.008254443
221	0xbefe913d	-0.49720183
222	0x3f62cd70	0.8859472
223	0xbf4cb8d1	-0.7996951
224	0xbdca79d3	-0.098865174
225	0xbe2b0cb5	-0.16704066
226	0xbe74a0fc	-0.23889536
227	0x3de99e63	0.11407163
228	0x3ee63593	0.4496275
229	0xbedc62a9	-0.43044022
230	0x3f78914b	0.970967
231	0x3e47024e	0.19434473
232	0x3ebfe4c1	0.37479213
233	0xbd1c2160	-0.038117766
234	0x3f202c0d	0.62567216
235	0xbe369f54	-0.17834216
236	0x3f52f727	0.82408375
237	0x3e90cad4	0.28279746
238	0x3d2b147e	0.04176759
239	0xbd49460e	-0.049139075
240	0xbd31d1ec	-0.043413088
241	0x3ecce8c0	0.40021324
242	0x3f1247ab	0.57140607
243	0x3e9c950f	0.30582473
244	0x3e8089f5	0.25105253
245	0x3d9fa442	0.077950016
246	0x3f42a6a9	0.76035553
247	0xbe4caac2	-0.19987014
248	0x3e815957	0.25263473
249	0xbec08afa	-0.3760603
250	0x3f086e2b	0.532931
251	0xbf239dc1	-0.6391259
252	0xbdb933f0	-0.090431094
253	0xbe5bd0cb	-0.21466367
254	0xbe6d6592	-0.23183277
255	0xbe98bae2	-0.2983008

l1.bias f4 [8]
0	0x3fa43811	1.282961
1	0x3f95ff4d	1.1718537
2	0x3f4e7969	0.8065401
3	0x3ed9d242	0.42543226
4	0x3f7f55a6	0.99740064
5	0x3f25118a	0.6447989
6	0x3f13e3a2	0.57769215
7	0x3ef6aabc	0.48177135

l2.weight f4 [8, 8]
0	0x3fa8c73c	1.3185802
1	0x3f8da716	1.1066616
2	0x3d9d9f1e	0.07696365
3	0xbf8c6acb	-1.0970091
4	0x3f2c0aed	0.6720417
5	0x3f049a68	0.51798105
6	0xbf867a6a	-1.0506108
7	0x3e9be5cb	0.30448756
8	0x3fba9e62	1.4579585
9	0xbdb30de9	-0.087428875
10	0x3fab376a	1.3376286
11	0x3fc21cc4	1.5165029
12	0xbf2257ca	-0.63415205
13	0xbf1fb7e4	-0.6238997
14	0x3d3fbb61	0.046809558
15	0x3faf9581	1.37175
16	0xbe48741c	-0.19575542
17	0xbd0ec728	-0.0348579
18	0x3f6f673f	0.93516916
19	0x3f6dfff1	0.9296866
20	0x3f3bc482	0.7334672
21	0xbfa3435c	-1.2754931
22	0x3f364cee	0.71211135
23	0x3fc6885a	1.5510361
24	0x3f1c7b5a	0.6112572
25	0xbed4c05b	-0.41553006
26	0x3fbac2a6	1.4590652
27	0xbfae9796	-1.364001
28	0x3f3bc7a9	0.7335153
29	0x3e2d2ca6	0.16911563
30	0x3fd95c2b	1.6981252
31	0xbdeacc23	-0.11464717
32	0x3f89c59c	1.076343
33	0x3fe1dfcc	1.7646422
34	0x3ea70e89	0.32628277
35	0x3e7fdb9b	0.24986117
36	0xbd7e4851	-0.062080685
37	0xbe41e9d7	-0.18936859
38	0xbf0625c6	-0.5240139
39	0xbf9e598b	-1.2371076
40	0xbeb6c435	-0.3569657
41	0xbe1bf385	-0.15229614
42	0xbf81e679	-1.014846
43	0x3f378136	0.71681535
44	0x3f58bbdc	0.8466165
45	0x3fc8fe88	1.5702677
46	0x3fbc0091	1.4687673
47	0x3f73ad70	0.9518652
48	0x3f58b1de	0.84646404
49	0xbe987404	-0.29776013
50	0xbf8b7ee8	-1.0898104
51	0x3d02f0dd	0.031967986
52	0x3fb9304a	1.4467862
53	0x3ebfba49	0.37446812
54	0x3df4b931	0.11949385
55	0x3f2e6ad8	0.6813178
56	0x3f9bd61d	1.2174717
57	0xbfc095f5	-1.5045763
58	0x3f16ed78	0.589561
59	0xbec86c9e	-0.39145368
60	0x3eacf395	0.33779588
61	0x3f12c03c	0.57324576
62	0x3f4b02db	0.7930123
63	0x3db5c984	0.08876327

l2.bias f4 [8]
0	0x3f5dd4d5	0.8665288
1	0xbe1a2a3b	-0.15055172
2	0xbf06f629	-0.5271936
3	0x3f8c84ab	1.0977987
4	0x3f8b0844	1.0861897
5	0xbf0bb33a	-0.54570353
6	0x3eec896f	0.46198604
7	0x3f169033	0.5881378

l3.weight f4 [15, 8]
0	0x3e9447fd	0.28961173
1	0xc007bf65	-2.1210568
2	0x3daa5646	0.083172366
3	0xbe676135	-0.22595675
4	0xbf567556	-0.8377279
5	0x3eea28d9	0.4573429
6	0x3eee3800	0.465271
7	0xbee9871b	-0.4561089
8	0xbdfcddf1	-0.123470195
9	0xbe0984d0	-0.1342957
10	0x3f4849c0	0.78237534
11	0xbfbc5a68	-1.471509
12	0xbed213ce	-0.41030735
13	0xbe738576	-0.2378138
14	0x3ebf1f63	0.37328634
15	0xbf3b8ed3	-0.7326481
16	0xbfbbbb5c	-1.4666553
17	0xbf3d44bc	-0.73933005
18	0xbd4b72ed	-0.04967015
19	0xbd033af4	-0.032038644
20	0xbf8757d4	-1.0573678
21	0x3f439e69	0.7641359
22	0x3d4e63b0	0.05038804
23	0x3e9058da	0.28192788
24	0xbec572c6	-0.38564128
25	0x3ee89c96	0.45431966
26	0x3d71db89	0.059047256
27	0xbf0601c1	-0.52346426
28	0xbfef275d	-1.8683888
29	0x3e9ee8b4	0.31036913
30	0x3e5c8e76	0.2153872
31	0xbe11a45e	-0.14222857
32	0x3ed1be3a	0.40965444
33	0xbddccbb6	-0.10781042
34	0x3e54f02c	0.20794743
35	0x3eff34e8	0.49845052
36	0xbfe933b0	-1.8218899
37	0xbec5692a	-0.38556796
38	0xbdf92079	-0.12164397
39	0x3e12e8d1	0.14346625
40	0xbeb3fc8b	-0.35153612
41	0x3f279e04	0.6547549
42	0xbe85ecbd	-0.2615718
43	0xbfb87295	-1.4409968
44	0x3f0d9d5b	0.5531823
45	0xbf553616	-0.83285654
46	0xbf8fbf35	-1.1230227
47	0xbf396859	-0.72424847
48	0xbf6b60cb	-0.9194457
49	0x3f5c2f81	0.86009985
50	0x3ecfe77d	0.406063
51	0xbdad34bc	-0.08457324
52	0xbeb5a754	-0.35479224
53	0x3bb16fe7	0.005414951
54	0xbfddbeec	-1.732389
55	0xbfa23825	-1.2673384
56	0x3ec0fbf0	0.37692213
57	0xc00cccae	-2.1999927
58	0xbfbd848a	-1.4806073
59	0x3f2af908	0.6678624
60	0x3ef9b2a5	0.48769107
61	0xbf487c1f	-0.78314394
62	0x3f4a6a26	0.7906822
63	0xbfbce565	-1.4757506
64	0x3ed3312a	0.41248447
65	0xbdc34616	-0.09534852
66	0xbfee4888	-1.8615885
67	0x3ef4b5bd	0.47794905
68	0xbe42028a	-0.18946281
69	0xc0047617	-2.0697076
70	0x3e945c68	0.2897675
71	0x3f5b7a5a	0.8573357
72	0xbe2d5682	-0.16927531
73	0xc005e1dd	-2.0919106
74	0xbf20da6b	-0.6283328
75	0x3f503af7	0.81339973
76	0xbf3849b6	-0.71987474
77	0xbd8dd769	-0.06925852
78	0x3d7e12a1	0.062029485
79	0x3f51e452	0.81989014
80	0x3ef857e3	0.48504552
81	0xbd9f0a8e	-0.07765685
82	0xbf58943b	-0.8460118
83	0xbf0d27d3	-0.5513889
84	0xbdfc4277	-0.12317365
85	0x3e8bd16f	0.27308223
86	0xbd919483	-0.071084045
87	0xbe533124	-0.20624214
88	0x3f4d8da4	0.8029425
89	0xbf866974	-1.0500932
90	0xbf3eccf8	-0.7453151
91	0xbfb84075	-1.4394671
92	0x3f65c00e	0.8974618
93	0xbf837da5	-1.0272719
94	0xbfc1052c	-1.5079703
95	0xbf13ee90	-0.5778589
96	0x3c99e69d	0.018786723
97	0x3f49c051	0.78809077
98	0x3db47851	0.08812011
99	0xbef190bd	-0.4718074
100	0xbf16e632	-0.58945
101	0xbfbe322c	-1.4859061
102	0xbe93c7c8	-0.28863358
103	0x3edb6997	0.42853996
104	0x3dbbfb05	0.091787376
105	0xbe7eb4ff	-0.24873732
106	0xbdefbe27	-0.117061906
107	0x3f6ccc10	0.92498875
108	0x3ed5e8c5	0.41779152
109	0xbf77831d	-0.9668444
110	0xbff3e576	-1.9054401
111	0xbf8d1fea	-1.1025364
112	0xbfdd4423	-1.7286419
113	0x3f29d4b8	0.6634021
114	0x3e9f91ab	0.31165823
115	0x3ed1e9ef	0.4099879
116	0xbfe73eca	-1.8066037
117	0xbe4c1d6f	-0.19933103
118	0xbead8aef	-0.3389506
119	0x3ddccfda	0.10781832

l3.bias f4 [15]
0	0xbd51f446	-0.051258348
1	0xbf0abfc6	-0.54198873
2	0x3d93518c	0.07193288
3	0xbf03bd1d	-0.5146044
4	0xbec6ee77	-0.3885381
5	0x3e508846	0.20364484
6	0x3e1cad28	0.15300429
7	0x3f2ad0bb	0.6672475
8	0xbda9eadf	-0.08296751
9	0x3e8327c3	0.25616273
10	0xbe420c88	-0.18950093
11	0x3ebd32b7	0.36952755
12	0xbe880da7	-0.26572916
13	0x3ea59e52	0.3234735
14	0xbe94989c	-0.29022682
